…
I0906 13:34:01.303316  8300 net.cpp:288] The NetState phase (0) differed from the phase (1) specified by a rule in layer accuracy
I0906 13:34:01.303493  8300 net.cpp:43] Initializing net from parameters: 
name: "AlexNet"
state {
  phase: TRAIN
}
layer {
  name: "data"
  type: "Data"
  top: "data"
  top: "label"
  include {
    phase: TRAIN
  }
  transform_param {
    mirror: true
    crop_size: 227
    mean_file: "/home/yugao/imagenet_data_lmdb/imagenet_mean.binaryproto"
  }
  data_param {
    source: "/home/yugao/imagenet_data_lmdb/ilsvrc12_train_lmdb"
    batch_size: 100
    backend: LMDB
  }
}
layer {
  name: "conv1"
  type: "Convolution"
  bottom: "data"
  top: "conv1"
  param {
    lr_mult: 1
    decay_mult: 1
  }
  param {
    lr_mult: 2
    decay_mult: 0
  }
  convolution_param {
    num_output: 96
    kernel_size: 11
    stride: 4
    weight_filler {
      type: "gaussian"
      std: 0.01
    }
    bias_filler {
      type: "constant"
      value: 0
    }
  }
}
layer {
  name: "relu1"
  type: "ReLU"
  bottom: "conv1"
  top: "conv1"
}
layer {
  name: "norm1"
  type: "LRN"
  bottom: "conv1"
  top: "norm1"
  lrn_param {
    local_size: 5
    alpha: 0.0001
    beta: 0.75
  }
}
layer {
  name: "pool1"
  type: "Pooling"
  bottom: "norm1"
  top: "pool1"
  pooling_param {
    pool: MAX
    kernel_size: 3
    stride: 2
  }
}
layer {
  name: "conv2"
  type: "Convolution"
  bottom: "pool1"
  top: "conv2"
  param {
    lr_mult: 1
    decay_mult: 1
  }
  param {
    lr_mult: 2
    decay_mult: 0
  }
  convolution_param {
    num_output: 256
    pad: 2
    kernel_size: 5
    group: 2
    weight_filler {
      type: "gaussian"
      std: 0.01
    }
    bias_filler {
      type: "constant"
      value: 0.1
    }
  }
}
layer {
  name: "relu2"
  type: "ReLU"
  bottom: "conv2"
  top: "conv2"
}
layer {
  name: "norm2"
  type: "LRN"
  bottom: "conv2"
  top: "norm2"
  lrn_param {
    local_size: 5
    alpha: 0.0001
    beta: 0.75
  }
}
layer {
  name: "pool2"
  type: "Pooling"
  bottom: "norm2"
  top: "pool2"
  pooling_param {
    pool: MAX
    kernel_size: 3
    stride: 2
  }
}
layer {
  name: "conv3"
  type: "Convolution"
  bottom: "pool2"
  top: "conv3"
  param {
    lr_mult: 1
    decay_mult: 1
  }
  param {
    lr_mult: 2
    decay_mult: 0
  }
  convolution_param {
    num_output: 384
    pad: 1
    kernel_size: 3
    weight_filler {
      type: "gaussian"
      std: 0.01
    }
    bias_filler {
      type: "constant"
      value: 0
    }
  }
}
layer {
  name: "relu3"
  type: "ReLU"
  bottom: "conv3"
  top: "conv3"
}
layer {
  name: "conv4"
  type: "Convolution"
  bottom: "conv3"
  top: "conv4"
  param {
    lr_mult: 1
    decay_mult: 1
  }
  param {
    lr_mult: 2
    decay_mult: 0
  }
  convolution_param {
    num_output: 384
    pad: 1
    kernel_size: 3
    group: 2
    weight_filler {
      type: "gaussian"
      std: 0.01
    }
    bias_filler {
      type: "constant"
      value: 0.1
    }
  }
}
layer {
  name: "relu4"
  type: "ReLU"
  bottom: "conv4"
  top: "conv4"
}
layer {
  name: "conv5"
  type: "Convolution"
  bottom: "conv4"
  top: "conv5"
  param {
    lr_mult: 1
    decay_mult: 1
  }
  param {
    lr_mult: 2
    decay_mult: 0
  }
  convolution_param {
    num_output: 256
    pad: 1
    kernel_size: 3
    group: 2
    weight_filler {
      type: "gaussian"
      std: 0.01
    }
    bias_filler {
      type: "constant"
      value: 0.1
    }
  }
}
layer {
  name: "relu5"
  type: "ReLU"
  bottom: "conv5"
  top: "conv5"
}
layer {
  name: "pool5"
  type: "Pooling"
  bottom: "conv5"
  top: "pool5"
  pooling_param {
    pool: MAX
    kernel_size: 3
    stride: 2
  }
}
layer {
  name: "fc6"
  type: "InnerProduct"
  bottom: "pool5"
  top: "fc6"
  param {
    lr_mult: 1
    decay_mult: 1
  }
  param {
    lr_mult: 2
    decay_mult: 0
  }
  inner_product_param {
    num_output: 4096
    weight_filler {
      type: "gaussian"
      std: 0.005
    }
    bias_filler {
      type: "constant"
      value: 0.1
    }
  }
}
layer {
  name: "relu6"
  type: "ReLU"
  bottom: "fc6"
  top: "fc6"
}
layer {
  name: "fc7"
  type: "InnerProduct"
  bottom: "fc6"
  top: "fc7"
  param {
    lr_mult: 1
    decay_mult: 1
  }
  param {
    lr_mult: 2
    decay_mult: 0
  }
  inner_product_param {
    num_output: 4096
    weight_filler {
      type: "gaussian"
      std: 0.005
    }
    bias_filler {
      type: "constant"
      value: 0.1
    }
  }
}
layer {
  name: "relu7"
  type: "ReLU"
  bottom: "fc7"
  top: "fc7"
}
layer {
  name: "fc8"
  type: "InnerProduct"
  bottom: "fc7"
  top: "fc8"
  param {
    lr_mult: 1
    decay_mult: 1
  }
  param {
    lr_mult: 2
    decay_mult: 0
  }
  inner_product_param {
    num_output: 1000
    weight_filler {
      type: "gaussian"
      std: 0.01
    }
    bias_filler {
      type: "constant"
      value: 0
    }
  }
}
layer {
  name: "loss"
  type: "SoftmaxWithLoss"
  bottom: "fc8"
  bottom: "label"
  top: "loss"
}
I0906 13:34:01.303913  8300 net.cpp:68] Memory required for data: 0
I0906 13:34:01.304132  8300 layer_factory.hpp:74] Creating layer data
I0906 13:34:01.304185  8300 net.cpp:91] Creating Layer data
I0906 13:34:01.304205  8300 net.cpp:369] data -> data
I0906 13:34:01.304306  8300 net.cpp:369] data -> label
I0906 13:34:01.304328  8300 net.cpp:121] Setting up data
I0906 13:34:01.304342  8300 data_transformer.cpp:22] Loading mean file from: /home/yugao/imagenet_data_lmdb/imagenet_mean.binaryproto
I0906 13:34:01.318087  8300 db_lmdb.cpp:22] Opened lmdb /home/yugao/imagenet_data_lmdb/ilsvrc12_train_lmdb
I0906 13:34:01.318596  8300 data_layer.cpp:53] output data size: 100,3,227,227
I0906 13:34:01.351816  8300 base_data_layer.cpp:43] Initializing prefetch
I0906 13:34:01.352555  8300 base_data_layer.cpp:45] Prefetch initialized.
I0906 13:34:01.352643  8300 net.cpp:128] Top shape: 100 3 227 227 (15458700)
I0906 13:34:01.352655  8300 net.cpp:128] Top shape: 100 (100)
I0906 13:34:01.352660  8300 net.cpp:134] Memory required for data: 61835200
I0906 13:34:01.352697  8300 layer_factory.hpp:74] Creating layer conv1
I0906 13:34:01.352783  8300 net.cpp:91] Creating Layer conv1
I0906 13:34:01.352808  8300 net.cpp:411] conv1 <- data
I0906 13:34:01.352902  8300 net.cpp:369] conv1 -> conv1
I0906 13:34:01.352937  8300 net.cpp:121] Setting up conv1
I0906 13:34:01.357744  8300 net.cpp:128] Top shape: 100 96 55 55 (29040000)
I0906 13:34:01.357751  8300 net.cpp:134] Memory required for data: 177995200
I0906 13:34:01.357791  8300 layer_factory.hpp:74] Creating layer relu1
I0906 13:34:01.357815  8300 net.cpp:91] Creating Layer relu1
I0906 13:34:01.357820  8300 net.cpp:411] relu1 <- conv1
I0906 13:34:01.357833  8300 net.cpp:358] relu1 -> conv1 (in-place)
I0906 13:34:01.357843  8300 net.cpp:121] Setting up relu1
I0906 13:34:01.357851  8300 net.cpp:128] Top shape: 100 96 55 55 (29040000)
I0906 13:34:01.357856  8300 net.cpp:134] Memory required for data: 294155200
I0906 13:34:01.357861  8300 layer_factory.hpp:74] Creating layer norm1
I0906 13:34:01.357890  8300 net.cpp:91] Creating Layer norm1
I0906 13:34:01.357895  8300 net.cpp:411] norm1 <- conv1
I0906 13:34:01.357908  8300 net.cpp:369] norm1 -> norm1
I0906 13:34:01.357920  8300 net.cpp:121] Setting up norm1
I0906 13:34:01.357944  8300 net.cpp:128] Top shape: 100 96 55 55 (29040000)
I0906 13:34:01.357949  8300 net.cpp:134] Memory required for data: 410315200
I0906 13:34:01.357954  8300 layer_factory.hpp:74] Creating layer pool1
I0906 13:34:01.357978  8300 net.cpp:91] Creating Layer pool1
I0906 13:34:01.357985  8300 net.cpp:411] pool1 <- norm1
I0906 13:34:01.357996  8300 net.cpp:369] pool1 -> pool1
I0906 13:34:01.358010  8300 net.cpp:121] Setting up pool1
I0906 13:34:01.358038  8300 net.cpp:128] Top shape: 100 96 27 27 (6998400)
I0906 13:34:01.358042  8300 net.cpp:134] Memory required for data: 438308800
I0906 13:34:01.358047  8300 layer_factory.hpp:74] Creating layer conv2
I0906 13:34:01.358060  8300 net.cpp:91] Creating Layer conv2
I0906 13:34:01.358067  8300 net.cpp:411] conv2 <- pool1
I0906 13:34:01.358079  8300 net.cpp:369] conv2 -> conv2
I0906 13:34:01.358091  8300 net.cpp:121] Setting up conv2
I0906 13:34:01.397493  8300 net.cpp:128] Top shape: 100 256 27 27 (18662400)
I0906 13:34:01.397511  8300 net.cpp:134] Memory required for data: 512958400
I0906 13:34:01.397541  8300 layer_factory.hpp:74] Creating layer relu2
I0906 13:34:01.397567  8300 net.cpp:91] Creating Layer relu2
I0906 13:34:01.397578  8300 net.cpp:411] relu2 <- conv2
I0906 13:34:01.397599  8300 net.cpp:358] relu2 -> conv2 (in-place)
I0906 13:34:01.397613  8300 net.cpp:121] Setting up relu2
I0906 13:34:01.397621  8300 net.cpp:128] Top shape: 100 256 27 27 (18662400)
I0906 13:34:01.397626  8300 net.cpp:134] Memory required for data: 587608000
I0906 13:34:01.397631  8300 layer_factory.hpp:74] Creating layer norm2
I0906 13:34:01.397649  8300 net.cpp:91] Creating Layer norm2
I0906 13:34:01.397655  8300 net.cpp:411] norm2 <- conv2
I0906 13:34:01.397667  8300 net.cpp:369] norm2 -> norm2
I0906 13:34:01.397680  8300 net.cpp:121] Setting up norm2
I0906 13:34:01.397699  8300 net.cpp:128] Top shape: 100 256 27 27 (18662400)
I0906 13:34:01.397704  8300 net.cpp:134] Memory required for data: 662257600
I0906 13:34:01.397709  8300 layer_factory.hpp:74] Creating layer pool2
I0906 13:34:01.397729  8300 net.cpp:91] Creating Layer pool2
I0906 13:34:01.397735  8300 net.cpp:411] pool2 <- norm2
I0906 13:34:01.397748  8300 net.cpp:369] pool2 -> pool2
I0906 13:34:01.397758  8300 net.cpp:121] Setting up pool2
I0906 13:34:01.397776  8300 net.cpp:128] Top shape: 100 256 13 13 (4326400)
I0906 13:34:01.397780  8300 net.cpp:134] Memory required for data: 679563200
I0906 13:34:01.397830  8300 layer_factory.hpp:74] Creating layer conv3
I0906 13:34:01.397851  8300 net.cpp:91] Creating Layer conv3
I0906 13:34:01.397857  8300 net.cpp:411] conv3 <- pool2
I0906 13:34:01.397871  8300 net.cpp:369] conv3 -> conv3
I0906 13:34:01.397886  8300 net.cpp:121] Setting up conv3
I0906 13:34:01.513005  8300 net.cpp:128] Top shape: 100 384 13 13 (6489600)
I0906 13:34:01.513030  8300 net.cpp:134] Memory required for data: 705521600
I0906 13:34:01.513072  8300 layer_factory.hpp:74] Creating layer relu3
I0906 13:34:01.513104  8300 net.cpp:91] Creating Layer relu3
I0906 13:34:01.513120  8300 net.cpp:411] relu3 <- conv3
I0906 13:34:01.513149  8300 net.cpp:358] relu3 -> conv3 (in-place)
I0906 13:34:01.513164  8300 net.cpp:121] Setting up relu3
I0906 13:34:01.513173  8300 net.cpp:128] Top shape: 100 384 13 13 (6489600)
I0906 13:34:01.513177  8300 net.cpp:134] Memory required for data: 731480000
I0906 13:34:01.513182  8300 layer_factory.hpp:74] Creating layer conv4
I0906 13:34:01.513208  8300 net.cpp:91] Creating Layer conv4
I0906 13:34:01.513214  8300 net.cpp:411] conv4 <- conv3
I0906 13:34:01.513229  8300 net.cpp:369] conv4 -> conv4
I0906 13:34:01.513244  8300 net.cpp:121] Setting up conv4
I0906 13:34:01.539248  8304 data_layer.cpp:120] Prefetch batch: 186 ms.
I0906 13:34:01.539295  8304 data_layer.cpp:121]      Read time: 22.695 ms.
I0906 13:34:01.539304  8304 data_layer.cpp:122] Transform time: 161.707 ms.
I0906 13:34:01.598980  8300 net.cpp:128] Top shape: 100 384 13 13 (6489600)
I0906 13:34:01.599004  8300 net.cpp:134] Memory required for data: 757438400
I0906 13:34:01.599028  8300 layer_factory.hpp:74] Creating layer relu4
I0906 13:34:01.599059  8300 net.cpp:91] Creating Layer relu4
I0906 13:34:01.599074  8300 net.cpp:411] relu4 <- conv4
I0906 13:34:01.599100  8300 net.cpp:358] relu4 -> conv4 (in-place)
I0906 13:34:01.599117  8300 net.cpp:121] Setting up relu4
I0906 13:34:01.599125  8300 net.cpp:128] Top shape: 100 384 13 13 (6489600)
I0906 13:34:01.599129  8300 net.cpp:134] Memory required for data: 783396800
I0906 13:34:01.599134  8300 layer_factory.hpp:74] Creating layer conv5
I0906 13:34:01.599158  8300 net.cpp:91] Creating Layer conv5
I0906 13:34:01.599164  8300 net.cpp:411] conv5 <- conv4
I0906 13:34:01.599177  8300 net.cpp:369] conv5 -> conv5
I0906 13:34:01.599191  8300 net.cpp:121] Setting up conv5
I0906 13:34:01.658185  8300 net.cpp:128] Top shape: 100 256 13 13 (4326400)
I0906 13:34:01.658205  8300 net.cpp:134] Memory required for data: 800702400
I0906 13:34:01.658242  8300 layer_factory.hpp:74] Creating layer relu5
I0906 13:34:01.658269  8300 net.cpp:91] Creating Layer relu5
I0906 13:34:01.658283  8300 net.cpp:411] relu5 <- conv5
I0906 13:34:01.658308  8300 net.cpp:358] relu5 -> conv5 (in-place)
I0906 13:34:01.658321  8300 net.cpp:121] Setting up relu5
I0906 13:34:01.658330  8300 net.cpp:128] Top shape: 100 256 13 13 (4326400)
I0906 13:34:01.658334  8300 net.cpp:134] Memory required for data: 818008000
I0906 13:34:01.658339  8300 layer_factory.hpp:74] Creating layer pool5
I0906 13:34:01.658357  8300 net.cpp:91] Creating Layer pool5
I0906 13:34:01.658362  8300 net.cpp:411] pool5 <- conv5
I0906 13:34:01.658375  8300 net.cpp:369] pool5 -> pool5
I0906 13:34:01.658390  8300 net.cpp:121] Setting up pool5
I0906 13:34:01.658407  8300 net.cpp:128] Top shape: 100 256 6 6 (921600)
I0906 13:34:01.658412  8300 net.cpp:134] Memory required for data: 821694400
I0906 13:34:01.658416  8300 layer_factory.hpp:74] Creating layer fc6
I0906 13:34:01.658447  8300 net.cpp:91] Creating Layer fc6
I0906 13:34:01.658453  8300 net.cpp:411] fc6 <- pool5
I0906 13:34:01.658466  8300 net.cpp:369] fc6 -> fc6
I0906 13:34:01.658480  8300 net.cpp:121] Setting up fc6
I0906 13:34:06.571331  8300 net.cpp:128] Top shape: 100 4096 (409600)
I0906 13:34:06.571354  8300 net.cpp:134] Memory required for data: 823332800
I0906 13:34:06.571382  8300 layer_factory.hpp:74] Creating layer relu6
I0906 13:34:06.571415  8300 net.cpp:91] Creating Layer relu6
I0906 13:34:06.571430  8300 net.cpp:411] relu6 <- fc6
I0906 13:34:06.571456  8300 net.cpp:358] relu6 -> fc6 (in-place)
I0906 13:34:06.571521  8300 net.cpp:121] Setting up relu6
I0906 13:34:06.571529  8300 net.cpp:128] Top shape: 100 4096 (409600)
I0906 13:34:06.571533  8300 net.cpp:134] Memory required for data: 824971200
I0906 13:34:06.571538  8300 layer_factory.hpp:74] Creating layer fc7
I0906 13:34:06.571558  8300 net.cpp:91] Creating Layer fc7
I0906 13:34:06.571563  8300 net.cpp:411] fc7 <- fc6
I0906 13:34:06.571578  8300 net.cpp:369] fc7 -> fc7
I0906 13:34:06.571593  8300 net.cpp:121] Setting up fc7
I0906 13:34:08.751106  8300 net.cpp:128] Top shape: 100 4096 (409600)
I0906 13:34:08.751129  8300 net.cpp:134] Memory required for data: 826609600
I0906 13:34:08.751155  8300 layer_factory.hpp:74] Creating layer relu7
I0906 13:34:08.751186  8300 net.cpp:91] Creating Layer relu7
I0906 13:34:08.751202  8300 net.cpp:411] relu7 <- fc7
I0906 13:34:08.751229  8300 net.cpp:358] relu7 -> fc7 (in-place)
I0906 13:34:08.751243  8300 net.cpp:121] Setting up relu7
I0906 13:34:08.751251  8300 net.cpp:128] Top shape: 100 4096 (409600)
I0906 13:34:08.751255  8300 net.cpp:134] Memory required for data: 828248000
I0906 13:34:08.751260  8300 layer_factory.hpp:74] Creating layer fc8
I0906 13:34:08.751281  8300 net.cpp:91] Creating Layer fc8
I0906 13:34:08.751286  8300 net.cpp:411] fc8 <- fc7
I0906 13:34:08.751301  8300 net.cpp:369] fc8 -> fc8
I0906 13:34:08.751315  8300 net.cpp:121] Setting up fc8
I0906 13:34:09.287158  8300 net.cpp:128] Top shape: 100 1000 (100000)
I0906 13:34:09.287181  8300 net.cpp:134] Memory required for data: 828648000
I0906 13:34:09.287209  8300 layer_factory.hpp:74] Creating layer loss
I0906 13:34:09.287257  8300 net.cpp:91] Creating Layer loss
I0906 13:34:09.287272  8300 net.cpp:411] loss <- fc8
I0906 13:34:09.287295  8300 net.cpp:411] loss <- label
I0906 13:34:09.287313  8300 net.cpp:369] loss -> loss
I0906 13:34:09.287333  8300 net.cpp:121] Setting up loss
…
I0906 13:34:09.289130  8300 net.cpp:288] The NetState phase (1) differed from the phase (0) specified by a rule in layer data
I0906 13:34:09.289348  8300 net.cpp:43] Initializing net from parameters: 
name: "AlexNet"
state {
  phase: TEST
}
layer {
  name: "data"
  type: "Data"
  top: "data"
  top: "label"
  include {
    phase: TEST
  }
  transform_param {
    mirror: false
    crop_size: 227
    mean_file: "/home/yugao/imagenet_data_lmdb/imagenet_mean.binaryproto"
  }
  data_param {
    source: "/home/yugao/imagenet_data_lmdb/ilsvrc12_val_lmdb"
    batch_size: 50
    backend: LMDB
  }
}
layer {
  name: "conv1"
  type: "Convolution"
  bottom: "data"
  top: "conv1"
  param {
    lr_mult: 1
    decay_mult: 1
  }
  param {
    lr_mult: 2
    decay_mult: 0
  }
  convolution_param {
    num_output: 96
    kernel_size: 11
    stride: 4
    weight_filler {
      type: "gaussian"
      std: 0.01
    }
    bias_filler {
      type: "constant"
      value: 0
    }
  }
}
layer {
  name: "relu1"
  type: "ReLU"
  bottom: "conv1"
  top: "conv1"
}
layer {
  name: "norm1"
  type: "LRN"
  bottom: "conv1"
  top: "norm1"
  lrn_param {
    local_size: 5
    alpha: 0.0001
    beta: 0.75
  }
}
layer {
  name: "pool1"
  type: "Pooling"
  bottom: "norm1"
  top: "pool1"
  pooling_param {
    pool: MAX
    kernel_size: 3
    stride: 2
  }
}
layer {
  name: "conv2"
  type: "Convolution"
  bottom: "pool1"
  top: "conv2"
  param {
    lr_mult: 1
    decay_mult: 1
  }
  param {
    lr_mult: 2
    decay_mult: 0
  }
  convolution_param {
    num_output: 256
    pad: 2
    kernel_size: 5
    group: 2
    weight_filler {
      type: "gaussian"
      std: 0.01
    }
    bias_filler {
      type: "constant"
      value: 0.1
    }
  }
}
layer {
  name: "relu2"
  type: "ReLU"
  bottom: "conv2"
  top: "conv2"
}
layer {
  name: "norm2"
  type: "LRN"
  bottom: "conv2"
  top: "norm2"
  lrn_param {
    local_size: 5
    alpha: 0.0001
    beta: 0.75
  }
}
layer {
  name: "pool2"
  type: "Pooling"
  bottom: "norm2"
  top: "pool2"
  pooling_param {
    pool: MAX
    kernel_size: 3
    stride: 2
  }
}
layer {
  name: "conv3"
  type: "Convolution"
  bottom: "pool2"
  top: "conv3"
  param {
    lr_mult: 1
    decay_mult: 1
  }
  param {
    lr_mult: 2
    decay_mult: 0
  }
  convolution_param {
    num_output: 384
    pad: 1
    kernel_size: 3
    weight_filler {
      type: "gaussian"
      std: 0.01
    }
    bias_filler {
      type: "constant"
      value: 0
    }
  }
}
layer {
  name: "relu3"
  type: "ReLU"
  bottom: "conv3"
  top: "conv3"
}
layer {
  name: "conv4"
  type: "Convolution"
  bottom: "conv3"
  top: "conv4"
  param {
    lr_mult: 1
    decay_mult: 1
  }
  param {
    lr_mult: 2
    decay_mult: 0
  }
  convolution_param {
    num_output: 384
    pad: 1
    kernel_size: 3
    group: 2
    weight_filler {
      type: "gaussian"
      std: 0.01
    }
    bias_filler {
      type: "constant"
      value: 0.1
    }
  }
}
layer {
  name: "relu4"
  type: "ReLU"
  bottom: "conv4"
  top: "conv4"
}
layer {
  name: "conv5"
  type: "Convolution"
  bottom: "conv4"
  top: "conv5"
  param {
    lr_mult: 1
    decay_mult: 1
  }
  param {
    lr_mult: 2
    decay_mult: 0
  }
  convolution_param {
    num_output: 256
    pad: 1
    kernel_size: 3
    group: 2
    weight_filler {
      type: "gaussian"
      std: 0.01
    }
    bias_filler {
      type: "constant"
      value: 0.1
    }
  }
}
layer {
  name: "relu5"
  type: "ReLU"
  bottom: "conv5"
  top: "conv5"
}
layer {
  name: "pool5"
  type: "Pooling"
  bottom: "conv5"
  top: "pool5"
  pooling_param {
    pool: MAX
    kernel_size: 3
    stride: 2
  }
}
layer {
  name: "fc6"
  type: "InnerProduct"
  bottom: "pool5"
  top: "fc6"
  param {
    lr_mult: 1
    decay_mult: 1
  }
  param {
    lr_mult: 2
    decay_mult: 0
  }
  inner_product_param {
    num_output: 4096
    weight_filler {
      type: "gaussian"
      std: 0.005
    }
    bias_filler {
      type: "constant"
      value: 0.1
    }
  }
}
layer {
  name: "relu6"
  type: "ReLU"
  bottom: "fc6"
  top: "fc6"
}
layer {
  name: "fc7"
  type: "InnerProduct"
  bottom: "fc6"
  top: "fc7"
  param {
    lr_mult: 1
    decay_mult: 1
  }
  param {
    lr_mult: 2
    decay_mult: 0
  }
  inner_product_param {
    num_output: 4096
    weight_filler {
      type: "gaussian"
      std: 0.005
    }
    bias_filler {
      type: "constant"
      value: 0.1
    }
  }
}
layer {
  name: "relu7"
  type: "ReLU"
  bottom: "fc7"
  top: "fc7"
}
layer {
  name: "fc8"
  type: "InnerProduct"
  bottom: "fc7"
  top: "fc8"
  param {
    lr_mult: 1
    decay_mult: 1
  }
  param {
    lr_mult: 2
    decay_mult: 0
  }
  inner_product_param {
    num_output: 1000
    weight_filler {
      type: "gaussian"
      std: 0.01
    }
    bias_filler {
      type: "constant"
      value: 0
    }
  }
}
layer {
  name: "accuracy"
  type: "Accuracy"
  bottom: "fc8"
  bottom: "label"
  top: "accuracy"
  include {
    phase: TEST
  }
}
layer {
  name: "loss"
  type: "SoftmaxWithLoss"
  bottom: "fc8"
  bottom: "label"
  top: "loss"
}
I0906 13:34:09.289656  8300 net.cpp:68] Memory required for data: 0
I0906 13:34:09.289702  8300 layer_factory.hpp:74] Creating layer data
I0906 13:34:09.289721  8300 net.cpp:91] Creating Layer data
I0906 13:34:09.289731  8300 net.cpp:369] data -> data
I0906 13:34:09.289752  8300 net.cpp:369] data -> label
I0906 13:34:09.289764  8300 net.cpp:121] Setting up data
I0906 13:34:09.289772  8300 data_transformer.cpp:22] Loading mean file from: /home/yugao/imagenet_data_lmdb/imagenet_mean.binaryproto
I0906 13:34:09.298058  8300 db_lmdb.cpp:22] Opened lmdb /home/yugao/imagenet_data_lmdb/ilsvrc12_val_lmdb
I0906 13:34:09.298318  8300 data_layer.cpp:53] output data size: 50,3,227,227
I0906 13:34:09.314699  8300 base_data_layer.cpp:43] Initializing prefetch
I0906 13:34:09.314806  8300 base_data_layer.cpp:45] Prefetch initialized.
I0906 13:34:09.314834  8300 net.cpp:128] Top shape: 50 3 227 227 (7729350)
I0906 13:34:09.314843  8300 net.cpp:128] Top shape: 50 (50)
I0906 13:34:09.314848  8300 net.cpp:134] Memory required for data: 30917600
I0906 13:34:09.314882  8300 layer_factory.hpp:74] Creating layer label_data_1_split
I0906 13:34:09.314973  8300 net.cpp:91] Creating Layer label_data_1_split
I0906 13:34:09.314997  8300 net.cpp:411] label_data_1_split <- label
I0906 13:34:09.315035  8300 net.cpp:369] label_data_1_split -> label_data_1_split_0
I0906 13:34:09.315073  8300 net.cpp:369] label_data_1_split -> label_data_1_split_1
I0906 13:34:09.315085  8300 net.cpp:121] Setting up label_data_1_split
I0906 13:34:09.315116  8300 net.cpp:128] Top shape: 50 (50)
I0906 13:34:09.315124  8300 net.cpp:128] Top shape: 50 (50)
I0906 13:34:09.315127  8300 net.cpp:134] Memory required for data: 30918000
I0906 13:34:09.315131  8300 layer_factory.hpp:74] Creating layer conv1
I0906 13:34:09.315165  8300 net.cpp:91] Creating Layer conv1
I0906 13:34:09.315171  8300 net.cpp:411] conv1 <- data
I0906 13:34:09.315183  8300 net.cpp:369] conv1 -> conv1
I0906 13:34:09.315198  8300 net.cpp:121] Setting up conv1
I0906 13:34:09.319859  8300 net.cpp:128] Top shape: 50 96 55 55 (14520000)
I0906 13:34:09.319864  8300 net.cpp:134] Memory required for data: 88998000
I0906 13:34:09.319883  8300 layer_factory.hpp:74] Creating layer relu1
I0906 13:34:09.319895  8300 net.cpp:91] Creating Layer relu1
I0906 13:34:09.319901  8300 net.cpp:411] relu1 <- conv1
I0906 13:34:09.319913  8300 net.cpp:358] relu1 -> conv1 (in-place)
I0906 13:34:09.319926  8300 net.cpp:121] Setting up relu1
I0906 13:34:09.319933  8300 net.cpp:128] Top shape: 50 96 55 55 (14520000)
I0906 13:34:09.319937  8300 net.cpp:134] Memory required for data: 147078000
I0906 13:34:09.319942  8300 layer_factory.hpp:74] Creating layer norm1
I0906 13:34:09.319962  8300 net.cpp:91] Creating Layer norm1
I0906 13:34:09.319968  8300 net.cpp:411] norm1 <- conv1
I0906 13:34:09.319980  8300 net.cpp:369] norm1 -> norm1
I0906 13:34:09.319991  8300 net.cpp:121] Setting up norm1
I0906 13:34:09.320009  8300 net.cpp:128] Top shape: 50 96 55 55 (14520000)
I0906 13:34:09.320053  8300 net.cpp:134] Memory required for data: 205158000
I0906 13:34:09.320060  8300 layer_factory.hpp:74] Creating layer pool1
I0906 13:34:09.320075  8300 net.cpp:91] Creating Layer pool1
I0906 13:34:09.320081  8300 net.cpp:411] pool1 <- norm1
I0906 13:34:09.320093  8300 net.cpp:369] pool1 -> pool1
I0906 13:34:09.320103  8300 net.cpp:121] Setting up pool1
I0906 13:34:09.320122  8300 net.cpp:128] Top shape: 50 96 27 27 (3499200)
I0906 13:34:09.320125  8300 net.cpp:134] Memory required for data: 219154800
I0906 13:34:09.320130  8300 layer_factory.hpp:74] Creating layer conv2
I0906 13:34:09.320143  8300 net.cpp:91] Creating Layer conv2
I0906 13:34:09.320149  8300 net.cpp:411] conv2 <- pool1
I0906 13:34:09.320163  8300 net.cpp:369] conv2 -> conv2
I0906 13:34:09.320174  8300 net.cpp:121] Setting up conv2
I0906 13:34:09.359275  8300 net.cpp:128] Top shape: 50 256 27 27 (9331200)
I0906 13:34:09.359290  8300 net.cpp:134] Memory required for data: 256479600
I0906 13:34:09.359316  8300 layer_factory.hpp:74] Creating layer relu2
I0906 13:34:09.359336  8300 net.cpp:91] Creating Layer relu2
I0906 13:34:09.359346  8300 net.cpp:411] relu2 <- conv2
I0906 13:34:09.359365  8300 net.cpp:358] relu2 -> conv2 (in-place)
I0906 13:34:09.359395  8300 net.cpp:121] Setting up relu2
I0906 13:34:09.359403  8300 net.cpp:128] Top shape: 50 256 27 27 (9331200)
I0906 13:34:09.359407  8300 net.cpp:134] Memory required for data: 293804400
I0906 13:34:09.359412  8300 layer_factory.hpp:74] Creating layer norm2
I0906 13:34:09.359433  8300 net.cpp:91] Creating Layer norm2
I0906 13:34:09.359438  8300 net.cpp:411] norm2 <- conv2
I0906 13:34:09.359452  8300 net.cpp:369] norm2 -> norm2
I0906 13:34:09.359467  8300 net.cpp:121] Setting up norm2
I0906 13:34:09.359486  8300 net.cpp:128] Top shape: 50 256 27 27 (9331200)
I0906 13:34:09.359490  8300 net.cpp:134] Memory required for data: 331129200
I0906 13:34:09.359495  8300 layer_factory.hpp:74] Creating layer pool2
I0906 13:34:09.359508  8300 net.cpp:91] Creating Layer pool2
I0906 13:34:09.359514  8300 net.cpp:411] pool2 <- norm2
I0906 13:34:09.359526  8300 net.cpp:369] pool2 -> pool2
I0906 13:34:09.359537  8300 net.cpp:121] Setting up pool2
I0906 13:34:09.359555  8300 net.cpp:128] Top shape: 50 256 13 13 (2163200)
I0906 13:34:09.359558  8300 net.cpp:134] Memory required for data: 339782000
I0906 13:34:09.359563  8300 layer_factory.hpp:74] Creating layer conv3
I0906 13:34:09.359581  8300 net.cpp:91] Creating Layer conv3
I0906 13:34:09.359587  8300 net.cpp:411] conv3 <- pool2
I0906 13:34:09.359601  8300 net.cpp:369] conv3 -> conv3
I0906 13:34:09.359613  8300 net.cpp:121] Setting up conv3
I0906 13:34:09.410833  8305 data_layer.cpp:120] Prefetch batch: 95 ms.
I0906 13:34:09.410863  8305 data_layer.cpp:121]      Read time: 11.984 ms.
I0906 13:34:09.410871  8305 data_layer.cpp:122] Transform time: 82.885 ms.
I0906 13:34:09.474556  8300 net.cpp:128] Top shape: 50 384 13 13 (3244800)
I0906 13:34:09.474578  8300 net.cpp:134] Memory required for data: 352761200
I0906 13:34:09.474618  8300 layer_factory.hpp:74] Creating layer relu3
I0906 13:34:09.474648  8300 net.cpp:91] Creating Layer relu3
I0906 13:34:09.474663  8300 net.cpp:411] relu3 <- conv3
I0906 13:34:09.474689  8300 net.cpp:358] relu3 -> conv3 (in-place)
I0906 13:34:09.474704  8300 net.cpp:121] Setting up relu3
I0906 13:34:09.474714  8300 net.cpp:128] Top shape: 50 384 13 13 (3244800)
I0906 13:34:09.474717  8300 net.cpp:134] Memory required for data: 365740400
I0906 13:34:09.474721  8300 layer_factory.hpp:74] Creating layer conv4
I0906 13:34:09.474745  8300 net.cpp:91] Creating Layer conv4
I0906 13:34:09.474751  8300 net.cpp:411] conv4 <- conv3
I0906 13:34:09.474766  8300 net.cpp:369] conv4 -> conv4
I0906 13:34:09.474781  8300 net.cpp:121] Setting up conv4
I0906 13:34:09.562909  8300 net.cpp:128] Top shape: 50 384 13 13 (3244800)
I0906 13:34:09.562930  8300 net.cpp:134] Memory required for data: 378719600
I0906 13:34:09.562957  8300 layer_factory.hpp:74] Creating layer relu4
I0906 13:34:09.562988  8300 net.cpp:91] Creating Layer relu4
I0906 13:34:09.563051  8300 net.cpp:411] relu4 <- conv4
I0906 13:34:09.563086  8300 net.cpp:358] relu4 -> conv4 (in-place)
I0906 13:34:09.563102  8300 net.cpp:121] Setting up relu4
I0906 13:34:09.563112  8300 net.cpp:128] Top shape: 50 384 13 13 (3244800)
I0906 13:34:09.563117  8300 net.cpp:134] Memory required for data: 391698800
I0906 13:34:09.563122  8300 layer_factory.hpp:74] Creating layer conv5
I0906 13:34:09.563146  8300 net.cpp:91] Creating Layer conv5
I0906 13:34:09.563153  8300 net.cpp:411] conv5 <- conv4
I0906 13:34:09.563168  8300 net.cpp:369] conv5 -> conv5
I0906 13:34:09.563182  8300 net.cpp:121] Setting up conv5
I0906 13:34:09.619202  8300 net.cpp:128] Top shape: 50 256 13 13 (2163200)
I0906 13:34:09.619220  8300 net.cpp:134] Memory required for data: 400351600
I0906 13:34:09.619256  8300 layer_factory.hpp:74] Creating layer relu5
I0906 13:34:09.619284  8300 net.cpp:91] Creating Layer relu5
I0906 13:34:09.619298  8300 net.cpp:411] relu5 <- conv5
I0906 13:34:09.619321  8300 net.cpp:358] relu5 -> conv5 (in-place)
I0906 13:34:09.619336  8300 net.cpp:121] Setting up relu5
I0906 13:34:09.619344  8300 net.cpp:128] Top shape: 50 256 13 13 (2163200)
I0906 13:34:09.619349  8300 net.cpp:134] Memory required for data: 409004400
I0906 13:34:09.619354  8300 layer_factory.hpp:74] Creating layer pool5
I0906 13:34:09.619380  8300 net.cpp:91] Creating Layer pool5
I0906 13:34:09.619386  8300 net.cpp:411] pool5 <- conv5
I0906 13:34:09.619398  8300 net.cpp:369] pool5 -> pool5
I0906 13:34:09.619411  8300 net.cpp:121] Setting up pool5
I0906 13:34:09.619431  8300 net.cpp:128] Top shape: 50 256 6 6 (460800)
I0906 13:34:09.619434  8300 net.cpp:134] Memory required for data: 410847600
I0906 13:34:09.619439  8300 layer_factory.hpp:74] Creating layer fc6
I0906 13:34:09.619457  8300 net.cpp:91] Creating Layer fc6
I0906 13:34:09.619463  8300 net.cpp:411] fc6 <- pool5
I0906 13:34:09.619477  8300 net.cpp:369] fc6 -> fc6
I0906 13:34:09.619488  8300 net.cpp:121] Setting up fc6
I0906 13:34:15.320122  8300 net.cpp:128] Top shape: 50 4096 (204800)
I0906 13:34:15.320147  8300 net.cpp:134] Memory required for data: 411666800
I0906 13:34:15.320174  8300 layer_factory.hpp:74] Creating layer relu6
I0906 13:34:15.320206  8300 net.cpp:91] Creating Layer relu6
I0906 13:34:15.320222  8300 net.cpp:411] relu6 <- fc6
I0906 13:34:15.320248  8300 net.cpp:358] relu6 -> fc6 (in-place)
I0906 13:34:15.320263  8300 net.cpp:121] Setting up relu6
I0906 13:34:15.320272  8300 net.cpp:128] Top shape: 50 4096 (204800)
I0906 13:34:15.320276  8300 net.cpp:134] Memory required for data: 412486000
I0906 13:34:15.320281  8300 layer_factory.hpp:74] Creating layer fc7
I0906 13:34:15.320302  8300 net.cpp:91] Creating Layer fc7
I0906 13:34:15.320308  8300 net.cpp:411] fc7 <- fc6
I0906 13:34:15.320322  8300 net.cpp:369] fc7 -> fc7
I0906 13:34:15.320338  8300 net.cpp:121] Setting up fc7
I0906 13:34:17.700968  8300 net.cpp:128] Top shape: 50 4096 (204800)
I0906 13:34:17.700994  8300 net.cpp:134] Memory required for data: 413305200
I0906 13:34:17.701020  8300 layer_factory.hpp:74] Creating layer relu7
I0906 13:34:17.701052  8300 net.cpp:91] Creating Layer relu7
I0906 13:34:17.701067  8300 net.cpp:411] relu7 <- fc7
I0906 13:34:17.701093  8300 net.cpp:358] relu7 -> fc7 (in-place)
I0906 13:34:17.701109  8300 net.cpp:121] Setting up relu7
I0906 13:34:17.701117  8300 net.cpp:128] Top shape: 50 4096 (204800)
I0906 13:34:17.701122  8300 net.cpp:134] Memory required for data: 414124400
I0906 13:34:17.701125  8300 layer_factory.hpp:74] Creating layer fc8
I0906 13:34:17.701146  8300 net.cpp:91] Creating Layer fc8
I0906 13:34:17.701153  8300 net.cpp:411] fc8 <- fc7
I0906 13:34:17.701166  8300 net.cpp:369] fc8 -> fc8
I0906 13:34:17.701191  8300 net.cpp:121] Setting up fc8
I0906 13:34:18.224659  8300 net.cpp:128] Top shape: 50 1000 (50000)
I0906 13:34:18.224681  8300 net.cpp:134] Memory required for data: 414324400
I0906 13:34:18.224707  8300 layer_factory.hpp:74] Creating layer fc8_fc8_0_split
I0906 13:34:18.224737  8300 net.cpp:91] Creating Layer fc8_fc8_0_split
I0906 13:34:18.224798  8300 net.cpp:411] fc8_fc8_0_split <- fc8
I0906 13:34:18.224828  8300 net.cpp:369] fc8_fc8_0_split -> fc8_fc8_0_split_0
I0906 13:34:18.224848  8300 net.cpp:369] fc8_fc8_0_split -> fc8_fc8_0_split_1
I0906 13:34:18.224860  8300 net.cpp:121] Setting up fc8_fc8_0_split
I0906 13:34:18.224876  8300 net.cpp:128] Top shape: 50 1000 (50000)
I0906 13:34:18.224882  8300 net.cpp:128] Top shape: 50 1000 (50000)
I0906 13:34:18.224886  8300 net.cpp:134] Memory required for data: 414724400
I0906 13:34:18.224891  8300 layer_factory.hpp:74] Creating layer accuracy
I0906 13:34:18.224922  8300 net.cpp:91] Creating Layer accuracy
I0906 13:34:18.224927  8300 net.cpp:411] accuracy <- fc8_fc8_0_split_0
I0906 13:34:18.224938  8300 net.cpp:411] accuracy <- label_data_1_split_0
I0906 13:34:18.224949  8300 net.cpp:369] accuracy -> accuracy
…
